lightning_logs/version_21/checkpoints/epoch=29-step=60.ckpt (torch, 10517 bytes, 19 tensors)

we.weight f4 [5, 2]
0	0xbf66ab78	-0.9010539
1	0xbe2c986d	-0.16855021
2	0x3fd5ca50	1.6702366
3	0xbefc97d7	-0.49334595
4	0x3ec51a6c	0.3849672
5	0x3d4f31dc	0.05058466
6	0xbe88cab2	-0.26717144
7	0xc038eb45	-2.8893597
8	0xc03b7a88	-2.9293537
9	0x3f6e39f5	0.93057185

pe.pe f4 [6, 2]
0	0x00000000	0.0
1	0x3f800000	1.0
2	0x3f576aa4	0.84147096
3	0x3f0a5141	0.54030234
4	0x3f68c7b7	0.9092974
5	0xbed51133	-0.41614684
6	0x3e1081c3	0.14112
7	0xbf7d7026	-0.9899925
8	0xbf41bdcf	-0.7568025
9	0xbf275530	-0.6536436
10	0xbf757c10	-0.9589243
11	0x3e913c2c	0.2836622

self_attention.W_q.weight f4 [2, 2]
0	0xbe58cc33	-0.21171646
1	0x4012c0ac	2.2930098
2	0x3f0184b3	0.5059311
3	0x3f563228	0.8367028

self_attention.W_k.weight f4 [2, 2]
0	0xbe8012c3	-0.25014314
1	0x400b756e	2.1790423
2	0xbf80d23d	-1.006416
3	0xbe9a9a79	-0.30195978

self_attention.W_v.weight f4 [2, 2]
0	0xbddcff7e	-0.10790919
1	0x3f78c923	0.9718191
2	0xbfaeb272	-1.3648207
3	0x403b1155	2.9229329

fc_layer.weight f4 [5, 2]
0	0x3f99090b	1.1955885
1	0x3f1c84a8	0.6113992
2	0xbfd0750f	-1.6285723
3	0x4044a616	3.072637
4	0x3f562be8	0.83660746
5	0x3f8a67b2	1.0812895
6	0xc0397f3d	-2.898391
7	0xbf0e3bb6	-0.5555986
8	0x3f057a83	0.52140063
9	0xc01d6dab	-2.4598186

fc_layer.bias f4 [5]
0	0xbf21353c	-0.62971854
1	0xc00aa4a8	-2.1662998
2	0xbf009377	-0.50225013
3	0x3f9214f3	1.1412643
4	0xbeaf358c	-0.3422054

exp_avg f4 [5, 2]
0	0x3b611082	0.0034342115
1	0x3c0385f6	0.008027544
2	0x3ba892d2	0.0051444555
3	0x3d2b92c1	0.041888002
4	0xbc6717e8	-0.014104821
5	0xbb6ca374	-0.0036108168
6	0xb8fce80e	-0.0001205952
7	0x39523464	0.00020046678
8	0x3c13ba31	0.009016559
9	0xba3326f2	-0.00068341114

exp_avg_sq f4 [5, 2]
0	0x3847b42b	4.761309e-05
1	0x39dd8157	0.0004224877
2	0x38f1a7e4	0.000115230476
3	0x3b7fd960	0.0039039478
4	0x38adcc30	8.287316e-05
5	0x39ec1041	0.00045025538
6	0x366504ca	3.4126447e-06
7	0x378cd6aa	1.6789261e-05
8	0x38e512bb	0.0001092306
9	0x39f3f16b	0.00046528442

exp_avg f4 [2, 2]
0	0x3cc093ee	0.023508038
1	0x3b36dc54	0.0027902322
2	0x3ccefe8c	0.025267862
3	0x3a8332dc	0.0010009664

exp_avg_sq f4 [2, 2]
0	0x3b1c3439	0.0023834838
1	0x3704db84	7.918923e-06
2	0x3abb7d40	0.0014304295
3	0x3677bce0	3.6915808e-06

exp_avg f4 [2, 2]
0	0xbb65b398	-0.0035049673
1	0x3ad22eaa	0.0016035635
2	0xbc9083a8	-0.017640904
3	0x3c06af1c	0.00822046

exp_avg_sq f4 [2, 2]
0	0x39358433	0.00017310753
1	0x37c81290	2.3850502e-05
2	0x39b39ef6	0.00034259976
3	0x3833567f	4.275748e-05

exp_avg f4 [2, 2]
0	0x3c64e254	0.013969976
1	0xba05a2a0	-0.00050977804
2	0xbb8480d0	-0.004043676
3	0x3b26dbd9	0.002546063

exp_avg_sq f4 [2, 2]
0	0x38addc1f	8.2902836e-05
1	0x37ce8c7e	2.4622535e-05
2	0x3885a8ed	6.373399e-05
3	0x38e32f80	0.00010833051

exp_avg f4 [5, 2]
0	0xbd567f42	-0.052367456
1	0x3c09b66d	0.00840531
2	0x3c08bff3	0.0083465455
3	0xba09ca70	-0.0005256301
4	0x3d1c2bd4	0.038127735
5	0xbc1c34d8	-0.009534083
6	0x3c1e3fd3	0.009658772
7	0x3ba0e438	0.0049100183
8	0xbb76c811	-0.003765587
9	0xbb555c17	-0.003255611

exp_avg_sq f4 [5, 2]
0	0x3b63a61e	0.0034736465
1	0x3a839e5d	0.0010041703
2	0x3924617b	0.00015676573
3	0x3965df95	0.00021922433
4	0x3b752258	0.0037404504
5	0x3a9e7283	0.001208857
6	0x39295222	0.00016147693
7	0x38211ef7	3.841423e-05
8	0x38f4f629	0.000116806776
9	0x3999ccaa	0.0002933492

exp_avg f4 [5]
0	0xbc5fb2a9	-0.013653436
1	0x3ae026e4	0.0017101434
2	0x3c3c41c1	0.011490286
3	0xbb59a02f	-0.003320705
4	0x3b775043	0.0037737049

exp_avg_sq f4 [5]
0	0x3a1e0e56	0.0006029358
1	0x3756700e	1.2781484e-05
2	0x3a1d8d4c	0.00060101296
3	0x38cb6865	9.699239e-05
4	0x3919939b	0.00014646204
