lightning_logs/version_19/checkpoints/epoch=99-step=400.ckpt (torch, 5961 bytes, 6 tensors)

input_to_hidden.weight f4 [2, 4]
-1.741457 2.0464504 1.7215208 -1.540129 1.6936462 2.2415104 -1.9196367 1.8670146
00000000: 10e8 debf 0bf9 0240 cb5a dc3f f222 c5bf
00000010: 66c9 d83f e874 0f40 a8b6 f5bf 56fa ee3f

hidden_to_output.weight f4 [4, 2]
-1.2848659 -1.688538 -3.2395742 1.6640497 1.8930347 1.0811126 2.0524359 -3.2876275
00000000: 7c76 a4bf 0322 d8bf 2f55 4fc0 95ff d43f
00000010: f64e f23f e661 8a3f 1c5b 0340 7d68 52c0

exp_avg f4 [2, 4]
0.000104597144 -0.00012601828 -0.0001416246 0.00024721795 -9.095802e-05 -7.083726e-05 0.0002697342 -0.0001169591
00000000: 2a5b db38 c623 04b9 1081 14b9 089d 8139
00000010: b7c0 beb8 778e 94b8 1d6b 8d39 f047 f5b8

exp_avg_sq f4 [2, 4]
0.00059207005 0.0008757583 0.00029306795 0.00091569807 0.0005513709 6.6945664e-05 0.0008857793 0.00065912044
00000000: 2635 1b3a 2593 653a eaa6 9939 750b 703a
00000010: e089 103a 2e65 8c38 a433 683a d3c8 2c3a

exp_avg f4 [4, 2]
-1.7048087e-05 2.039461e-05 0.00021457167 -0.00012859577 -8.653715e-05 -0.00010173193 -0.00011099387 0.00020995158
00000000: 7d02 8fb7 1715 ab37 a5fe 6039 aad7 06b9
00000010: 477b b5b8 ea58 d5b8 61c5 e8b8 7326 5c39

exp_avg_sq f4 [4, 2]
0.00012038803 0.000110873196 0.00018998903 0.00040661896 0.00045196252 0.00041842612 0.0005284987 0.0004943373
00000000: d578 fc38 9884 e838 cb37 4739 792f d539
00000010: 62f5 ec39 3460 db39 f38a 0a3a 6a96 013a
