lightning_logs/version_12/checkpoints/epoch=99-step=400.ckpt (torch, 5961 bytes, 6 tensors)

input_to_hidden.weight f4 [2, 4]
0	0x40005e75	2.0057652
1	0x409b86b6	4.860194
2	0xc0648959	-3.570883
3	0x40005d3c	2.0056906
4	0x409d894e	4.923011
5	0xc001e581	-2.0296328
6	0x3fd6b535	1.677405
7	0x409d3610	4.9128494

hidden_to_output.weight f4 [4, 2]
0	0xbfcd0858	-1.6018171
1	0xc067b2ef	-3.6202962
2	0x3f5b61f1	0.8569632
3	0x3ffc3ed9	1.970668
4	0x402af5f1	2.671261
5	0xc07679fa	-3.8511949
6	0xc0be0cbd	-5.939055
7	0xbebc822c	-0.36818063

exp_avg f4 [2, 4]
0	0xad02399c	-7.402436e-12
1	0xaca21ed3	-4.607739e-12
2	0xad24cb21	-9.367424e-12
3	0xad305f03	-1.00255386e-11
4	0xad52d565	-1.1984501e-11
5	0xabf190ab	-1.7164233e-12
6	0xac894929	-3.9018966e-12
7	0xad992856	-1.7411999e-11

exp_avg_sq f4 [2, 4]
0	0x1aeeff01	9.8846474e-23
1	0x1bcefdfa	3.424397e-22
2	0x1c8a7427	9.162099e-22
3	0x1ae53b44	9.480793e-23
4	0x1b99eb50	2.5463794e-22
5	0x1ab9acf6	7.679364e-23
6	0x1a53c1ed	4.379043e-23
7	0x1bb05405	2.9171054e-22

exp_avg f4 [4, 2]
0	0xae950d50	-6.7781e-11
1	0x2e945088	6.744566e-11
2	0xaf04420e	-1.2028797e-10
3	0x2f058393	1.2143024e-10
4	0x2d78db82	1.4145908e-11
5	0x2e188a1b	3.468346e-11
6	0x2d577dcd	1.22492684e-11
7	0x2e0416a4	3.0033434e-11

exp_avg_sq f4 [4, 2]
0	0x21bcf16a	1.2803277e-18
1	0x209447ec	2.511977e-19
2	0x228ee7b2	3.8734494e-18
3	0x21602d12	7.59538e-19
4	0x1b1ed1b8	1.3137217e-22
5	0x1c6fe95f	7.938009e-22
6	0x1aed1474	9.8053946e-23
7	0x1c331517	5.925339e-22
