lightning_logs/version_14/checkpoints/epoch=99-step=400.ckpt (torch, 5961 bytes, 6 tensors)

input_to_hidden.weight f4 [2, 4]
000000 e8 6d 06 40 32 f9 9b 40 5b 2a 62 c0 b3 59 06 40
       2.1004581 4.8741693 -3.5338352 2.0992248
000010 3f 92 a2 40 ac d1 fb bf 56 a8 e0 3f 25 5f a2 40
       5.0803523 -1.9673362 1.7551372 5.0741143

hidden_to_output.weight f4 [4, 2]
000000 d6 00 dd bf 36 85 7a c0 f6 2e 1e 3f ef b0 b0 3f
       -1.726588 -3.9143806 0.61790407 1.3803996
000010 7b 9c 21 40 eb 94 86 c0 5c 22 c2 c0 b0 93 2d bf
       2.5251758 -4.2056785 -6.0666943 -0.6780348

exp_avg f4 [2, 4]
000000 53 74 86 ad 18 ab 23 ac 12 17 ce ac 8e 54 bb ad
       -1.5285695e-11 -2.325867e-12 -5.8574335e-12 -2.1296988e-11
000010 13 4b e4 ad 31 f8 77 ad d3 37 aa ad 07 5a 22 ae
       -2.5953939e-11 -1.4095434e-11 -1.9351553e-11 -3.6914496e-11

exp_avg_sq f4 [2, 4]
000000 12 8d a4 1b 13 75 26 19 c6 ae 1f 1a db d0 aa 1b
       2.7222689e-22 8.605642e-24 3.302161e-23 2.825911e-22
000010 4c 67 69 1c fc 14 58 1b 99 fa b8 1b 63 fd 7e 1c
       7.722674e-22 1.7873882e-22 3.0602191e-22 8.4369045e-22

exp_avg f4 [4, 2]
000000 4b af 42 ae 93 1a b4 2e e1 3b 07 af 50 1b 77 2f
       -4.4266184e-11 8.190173e-11 -1.2299452e-10 2.2474222e-10
000010 e7 27 f2 2d 02 68 92 2e fc 37 d4 2d 55 4e 80 2e
       2.7529935e-11 6.657787e-11 2.4126472e-11 5.834681e-11

exp_avg_sq f4 [4, 2]
000000 d7 d3 bd 21 8a e0 98 20 93 31 0b 23 7b 59 e0 21
       1.2863212e-18 2.589839e-19 7.545703e-18 1.5202516e-18
000010 7f 03 c3 1b 43 7d 0f 1d a8 71 95 1b 47 eb db 1c
       3.2262303e-22 1.8990651e-21 2.472343e-22 1.4553022e-21
