lightning_logs/version_13/checkpoints/epoch=99-step=400.ckpt (torch, 5961 bytes, 6 tensors)

input_to_hidden.weight f4 [2, 4]
2.0445895 4.8685393 -3.5507207 2.0436902 4.986618 -2.0095425 1.7036427 4.978403
00000000: 8eda 0240 13cb 9b40 023f 63c0 d2cb 0240
00000010: 6092 9f40 589c 00c0 f710 da3f 144f 9f40

hidden_to_output.weight f4 [4, 2]
-1.650971 -3.7519472 0.76827157 1.7328246 2.6103837 -3.9995997 -5.992096 -0.49752334
00000000: 0553 d3bf e71f 70c0 72ad 443f 32cd dd3f
00000010: 8710 2740 71f9 7fc0 40bf bfc0 61bb febe

exp_avg f4 [2, 4]
-9.349299e-12 -9.739412e-13 -3.406082e-12 -1.28990395e-11 -1.5490983e-11 -7.119275e-12 -9.708975e-12 -2.2254625e-11
00000000: 8079 24ad ee11 89ab 85ae 6fac 1cec 62ad
00000010: 9842 88ad ba7c faac 56cd 2aad f6c0 c3ad

exp_avg_sq f4 [2, 4]
1.2533642e-22 9.618643e-24 4.1696786e-23 1.2658163e-22 3.3838733e-22 4.9485715e-23 9.7554926e-23 3.7748824e-22
00000000: be85 171b 370d 3a19 1fa2 491a 1e07 191b
00000010: e78a cc1b 594c 6f1a 93df eb1a 7a2d e41b

exp_avg f4 [4, 2]
-5.5570906e-11 7.22077e-11 -1.1861118e-10 1.5365512e-10 1.7414138e-11 4.2448926e-11 1.517766e-11 3.6997176e-11
00000000: 4767 74ae 52c9 9e2e 146a 02af 12f2 282f
00000010: 272d 992d 3eb1 3a2e 0d81 852d 1eb7 222e

exp_avg_sq f4 [4, 2]
1.3880519e-18 2.7553676e-19 5.4306053e-18 1.0781253e-18 1.5771079e-22 9.418958e-22 1.1962321e-22 7.1444615e-22
00000000: 1ed7 cc21 f0a5 a220 9e5a c822 6c1a 9f21
00000010: 20a9 3e1b d455 8e1c 979d 101b 98ed 571c
