lightning_logs/version_15/checkpoints/epoch=99-step=400.ckpt (torch, 5961 bytes, 6 tensors)

input_to_hidden.weight f4 [2, 4]
0	0x400dd6d9	2.2162383
1	0x409cd1ec	4.900625
2	0xc05f1288	-3.485506
3	0x400dc792	2.2153058
4	0x40a8f466	5.279834
5	0xbfecc2da	-1.8496964
6	0x3ff34892	1.9006522
7	0x40a8d6bb	5.276212

hidden_to_output.weight f4 [4, 2]
0	0xbfeb51d4	-1.8384347
1	0xc08478fa	-4.1397676
2	0x3ea2d92f	0.31806323
3	0x3f2e7851	0.6815234
4	0x4016cfeb	2.3564403
5	0xc09373aa	-4.607869
6	0xc0c6e43e	-6.2153616
7	0xbf842f06	-1.032685

exp_avg f4 [2, 4]
0	0xae3da603	-4.3121073e-11
1	0xad96b695	-1.7134108e-11
2	0xae02076e	-2.9565177e-11
3	0xae85140e	-6.051702e-11
4	0xaea60259	-7.549223e-11
5	0xae881d9e	-6.189825e-11
6	0xaebc789a	-8.570673e-11
7	0xaeeadcad	-1.0680288e-10

exp_avg_sq f4 [2, 4]
0	0x1ccbaf2b	1.3478693e-21
1	0x1b035f95	1.086695e-22
2	0x1bb250b3	2.949978e-22
3	0x1cd6bec7	1.4210647e-21
4	0x1d996b08	4.060943e-21
5	0x1cfcbb39	1.6724357e-21
6	0x1d4a294e	2.6755831e-21
7	0x1da4f142	4.3659893e-21

exp_avg f4 [4, 2]
0	0xad9cd1ac	-1.782826e-11
1	0x2ee5f5e3	1.04573926e-10
2	0xaeed9060	-1.08031584e-10
3	0x3014394b	5.3923505e-10
4	0x2ea13f0d	7.3326324e-11
5	0x2f4026d0	1.7476087e-10
6	0x2e8e7616	6.478389e-11
7	0x2f29c414	1.5440121e-10

exp_avg_sq f4 [4, 2]
0	0x219ee1e4	1.0766289e-18
1	0x2083e4e3	2.2343728e-19
2	0x238688bc	1.4586218e-17
3	0x2260a57b	3.0445265e-18
4	0x1cd9f5ae	1.4423362e-21
5	0x1e1c5ac7	8.2773436e-21
6	0x1ca95323	1.1204972e-21
7	0x1df2ec9f	6.4301527e-21
