lightning_logs/version_17/checkpoints/epoch=50-step=204.ckpt (torch, 5897 bytes, 6 tensors)

input_to_hidden.weight f4 [2, 4]
000000 44 f2 5f 40 92 cb c7 40 5d d4 86 c0 a8 9d 5f 40
       3.4991617 6.2436 -4.2134233 3.4939976
000010 a8 2c df 40 32 a7 f1 bf eb 6a 17 40 a1 00 df 40
       6.974201 -1.8879149 2.3659008 6.968827

hidden_to_output.weight f4 [4, 2]
000000 e6 63 0b c0 90 d1 98 c0 22 27 a1 bf 58 c9 c2 bf
       -2.1779723 -4.7755814 -1.2590067 -1.5217695
000010 52 c2 36 40 90 13 e9 c0 77 ce ff c0 4e 65 ec bf
       2.8556104 -7.283638 -7.993953 -1.8468416

exp_avg f4 [2, 4]
000000 7b 03 23 ad 82 41 21 a5 96 eb c4 aa 5a dd 67 ad
       -9.26625e-12 -1.3986719e-16 -3.4980065e-13 -1.317998e-11
000010 ad 98 a1 ad 81 c4 9a a5 f5 06 f5 aa 16 c1 df ad
       -1.8371383e-11 -2.6847898e-16 -4.352557e-13 -2.5437912e-11

exp_avg_sq f4 [2, 4]
000000 47 e0 53 1b 6d 19 a3 0a 95 49 cb 15 cc a9 65 1b
       1.7525979e-22 1.5705893e-32 8.210714e-26 1.89973e-22
000010 32 9d 54 1c 6b 2e 97 0b 18 05 1d 16 3e 82 57 1c
       7.0348086e-22 5.8232926e-32 1.2683966e-25 7.1305867e-22

exp_avg f4 [4, 2]
000000 f2 99 33 2d 98 9a b3 2d 8b bb 9e ab 68 45 32 2b
       1.0209155e-11 2.0418597e-11 -1.1278629e-12 6.3334624e-13
000010 bc 46 4a 2d b4 a9 c9 2d 6c ee 43 2d 8f 56 c3 2d
       1.1498077e-11 2.2926418e-11 1.1137407e-11 2.2207373e-11

exp_avg_sq f4 [4, 2]
000000 27 63 b2 1a 84 51 b1 1b a4 fd 83 17 28 62 a6 16
       7.3779264e-23 2.9334872e-22 8.529704e-25 2.6880692e-25
000010 5a c7 f3 1a 09 51 f2 1b 98 fe df 1a 45 a8 de 1b
       1.00824514e-22 4.008791e-22 9.2641957e-23 3.683556e-22
