lightning_logs/version_8/checkpoints/epoch=99-step=400.ckpt (torch, 5961 bytes, 6 tensors)

input_to_hidden.weight f4 [2, 4]
00000000: fd80 573f 1397 4740 837b 23c0 73cd 3d3f
00000010: ae2d 5440 3f6f 74bf 428b 783f 5831 4940
0.84181195 3.1185958 -2.5544136 0.74141616 3.315288 -0.9548225 0.9708749 3.1436367

hidden_to_output.weight f4 [4, 2]
00000000: 6003 d5bf 926d 60c0 a5df 543e 58ba f13f
00000010: 1229 ea3f d3c3 96bf 9c38 72c0 740d 17be
-1.6641655 -3.5066876 0.20788439 1.8884993 1.8293784 -1.1778511 -3.7847052 -0.14751226

exp_avg f4 [2, 4]
00000000: e925 9e37 5f8c 94b9 98f2 cc39 40d1 6736
00000010: a4db fcb8 b753 2639 88f0 e7b6 ac44 84b9
1.8852721e-05 -0.00028333344 0.00039090659 3.4543482e-06 -0.00012057208 0.0001586218 -6.912338e-06 -0.00025228166

exp_avg_sq f4 [2, 4]
00000000: dfaf 3639 60ce fd39 716c 913a 3b5d 2139
00000010: 11b6 9439 de85 393a 2a0c 5736 fba8 f639
0.0001742239 0.00048409682 0.001109494 0.00015388888 0.0002836441 0.00070771377 3.2044577e-06 0.00047046677

exp_avg f4 [4, 2]
00000000: 224d 5937 7677 a336 2c49 f1b7 7726 e4b9
00000010: dad2 a5b9 3cd5 e439 a525 ae39 c8a1 ccb6
1.2952167e-05 4.8716856e-06 -2.8763512e-05 -0.00043516207 -0.0003162835 0.0004364642 0.00033215914 -6.0985076e-06

exp_avg_sq f4 [4, 2]
00000000: 5ee5 5f38 7039 3838 56fc 383b fbee 723b
00000010: d30e 4c3b af14 5a3b a12f bb39 6d64 043a
5.3380958e-05 4.392251e-05 0.0028226576 0.0037068713 0.0031136766 0.0033276489 0.00035702906 0.0005050365
