lightning_logs/version_10/checkpoints/epoch=99-step=400.ckpt (torch, 5961 bytes, 6 tensors)

input_to_hidden.weight f4 [2, 4]
0	0x3ff57eab	1.9179281
1	0x409258ac	4.573324
2	0xc0808b47	-4.0170016
3	0x3ff69c70	1.9266491
4	0x409904f8	4.7818565
5	0xbff22ae7	-1.8919343
6	0x3fe33a4f	1.7752169
7	0x40987378	4.7640953

hidden_to_output.weight f4 [4, 2]
0	0xbff26422	-1.8936808
1	0xc052bd7a	-3.2928147
2	0x3f0efbf9	0.5585323
3	0x401ae68a	2.420321
4	0x40347107	2.8193986
5	0xc05f2fe4	-3.487298
6	0xc0ba0c71	-5.8140187
7	0xbd78c8e5	-0.060738463

exp_avg f4 [2, 4]
0	0xada3cd4e	-1.8622128e-11
1	0xaea51840	-7.507639e-11
2	0xaf1bbed2	-1.4164961e-10
3	0xadb0875a	-2.0068992e-11
4	0xae0bae32	-3.1759657e-11
5	0x2dd9ec99	2.4775114e-11
6	0xace2d33c	-6.446758e-12
7	0xae57a423	-4.9031123e-11

exp_avg_sq f4 [2, 4]
0	0x22d873d5	5.866956e-18
1	0x262148ad	5.595659e-16
2	0x264067de	6.675415e-16
3	0x20b43511	3.0528303e-19
4	0x21ba71c1	1.2633961e-18
5	0x2321bda6	8.767987e-18
6	0x22e826fc	6.2925002e-18
7	0x21a4b014	1.115968e-18

exp_avg f4 [4, 2]
0	0xaf3ab4f2	-1.6980886e-10
1	0x2eb8ef3a	8.4098464e-11
2	0xaf3e4746	-1.7305721e-10
3	0x2ec60842	9.0054644e-11
4	0x2e418263	4.3998926e-11
5	0x2ef00d5d	1.091631e-10
6	0x2e1615b7	3.4125338e-11
7	0x2eba3c25	8.4689845e-11

exp_avg_sq f4 [4, 2]
0	0x2621c61b	5.612658e-16
1	0x24ad0f53	7.505275e-17
2	0x2551b43a	1.8188923e-16
3	0x23c46ac4	2.129558e-17
4	0x262e1830	6.0401157e-16
5	0x24d8382f	9.3770246e-17
6	0x261078cb	5.012374e-16
7	0x2493abaf	6.404193e-17
