lightning_logs/version_20/checkpoints/epoch=29-step=60.ckpt (torch, 10517 bytes, 19 tensors)

we.weight f4 [5, 2]
00000000: ed18 81bf ddc5 dd3e 8df4 3e40 c044 ab3e
00000010: 380c d63d ba41 d23e cf9b 20c0 fce9 913f
00000020: fbd4 8f3e ce84 04c0
-1.0085732 0.4331502 2.9836762 0.3345089 0.10451549 0.4106577 -2.5095098 1.1399531
0.2809218 -2.0706058

pe.pe f4 [6, 2]
00000000: 0000 0000 0000 803f a46a 573f 4151 0a3f
00000010: b7c7 683f 3311 d5be c381 103e 2670 7dbf
00000020: cfbd 41bf 3055 27bf 107c 75bf 2c3c 913e
0.0 1.0 0.84147096 0.54030234 0.9092974 -0.41614684 0.14112 -0.9899925
-0.7568025 -0.6536436 -0.9589243 0.2836622

self_attention.W_q.weight f4 [2, 2]
00000000: aa6a 9ebf 2011 9cbf 1d41 1240 732e 93bf
-1.2376301 -1.2192726 2.2852242 -1.149855

self_attention.W_k.weight f4 [2, 2]
00000000: 7b86 4f3f 155f a23f 76ad 44be 2dc5 d0bf
0.81064576 1.2685267 -0.19206795 -1.6310173

self_attention.W_v.weight f4 [2, 2]
00000000: a28a 62c0 3d7c a5be 0804 55bf e8fe bb3f
-3.5397115 -0.3232135 -0.83209276 1.4687166

fc_layer.weight f4 [5, 2]
00000000: e513 963f 3a6e 633e 9373 90bf a8c4 dd3f
00000010: eef0 e13f d88a 8dbe db7d 27be 7011 29c0
00000020: 3d41 39c0 f0c6 46bf
1.1724821 0.22210017 -1.128527 1.732564 1.7651651 -0.27644992 -0.16356604 -2.6416893
-2.8946068 -0.77647305

fc_layer.bias f4 [5]
00000000: 3e62 06bf afe3 853e fb71 abbf 0224 b0bf
00000010: 0126 f93f
-0.52493656 0.2615027 -1.3394159 -1.3760989 1.9464723

exp_avg f4 [5, 2]
00000000: a0dc 2f3c 2433 b1bb fa87 3dbc 4642 c43b
00000010: 183a 2239 f8e0 43bc cab6 0939 7e1f e7b8
00000020: 382f 9437 554f 973a
0.010733753 -0.0054077078 -0.011568064 0.0059893457 0.00015471166 -0.011955492 0.00013133432 -0.00011020804
1.7664963e-05 0.0011544029

exp_avg_sq f4 [5, 2]
00000000: 7dc7 ed39 08de 973a 88bd a839 906d 6c3a
00000010: 68a8 8639 7bec c439 fbea 8b37 f5f8 3538
00000020: 875f ef37 099f df38
0.00045352793 0.0011586556 0.0003218467 0.00090190116 0.00025683944 0.00037560225 1.6679513e-05 4.3385622e-05
2.8535504e-05 0.00010663091

exp_avg f4 [2, 2]
00000000: d1a5 08b9 fa0f a639 73e3 b3b9 83ab 9339
-0.00013031742 0.0003167389 -0.00034311003 0.0002816581

exp_avg_sq f4 [2, 2]
00000000: bf27 be38 05b5 7b37 e722 b937 ed71 4036
9.067309e-05 1.5002913e-05 2.2069971e-05 2.8676543e-06

exp_avg f4 [2, 2]
00000000: 06d6 ca39 3034 14ba 81aa 9dba 7201 ab3a
0.00038687902 -0.00056535285 -0.0012028964 0.0013046695

exp_avg_sq f4 [2, 2]
00000000: b2f9 453a c630 6c38 2fa5 0d3b b1ea 2939
0.0007552161 5.631221e-05 0.002161335 0.00016204525

exp_avg f4 [2, 2]
00000000: 36ec 333b 1496 04b9 0940 c5ba 0cdd c4bb
0.0027454025 -0.0001264441 -0.0015048991 -0.006007796

exp_avg_sq f4 [2, 2]
00000000: 5200 c738 ca4a 5039 5a15 c938 306b b939
9.489119e-05 0.00019864287 9.588404e-05 0.0003536581

exp_avg f4 [5, 2]
00000000: 80cb d53a 4cdf 01bd fa6f 9e3c 4a5d 1dbb
00000010: aa71 b4bc 15fa ee3c 83ca b6ba dda2 7b3a
00000020: ec8c 203b 754c 823b
0.0016311258 -0.031707093 0.019340504 -0.0024011903 -0.022026855 0.029171983 -0.0013945851 0.00095991587
0.0024498058 0.0039763995

exp_avg_sq f4 [5, 2]
00000000: ebc4 cd3b a03f 253b e520 8539 d18c 8a3a
00000010: 5ace ae3b c14c ee3a 9ca7 7938 5552 a639
00000020: 6044 a738 fbae ce39
0.006279578 0.0025214925 0.00025392245 0.0010570531 0.0053346576 0.0018180833 5.9522325e-05 0.0003172333
7.9759164e-05 0.00039421752

exp_avg f4 [5]
00000000: 89a2 bcbc 2717 423b 0e5b a63c a0ca b93a
00000010: 1c81 d9ba
-0.023026722 0.002961585 0.02030709 0.0014174767 -0.0016594264

exp_avg_sq f4 [5]
00000000: b0db 243a 7c78 3238 85a1 103a afa9 8637
00000010: a86c 2f39
0.00062888395 4.2550717e-05 0.00055172323 1.605306e-05 0.00016729778
