lightning_logs/version_11/checkpoints/epoch=99-step=400.ckpt (torch, 5961 bytes, 6 tensors)

input_to_hidden.weight f4 [2, 4]
00000000: a43c fc3f da88 9940 cef6 6ac0 da71 fc3f
00000010: e9bb 9b40 105e 00c0 ba31 d83f 1955 9b40
1.9706006 4.7979555 -3.6713138 1.9722245 4.8666883 -2.0057411 1.6890175 4.854138

hidden_to_output.weight f4 [4, 2]
00000000: a591 d1bf c3ff 5ec0 f4b5 553f 2051 0b40
00000010: f294 2e40 5699 6dc0 137c bcc0 6a2d 7ebe
-1.6372572 -3.4843605 0.83480763 2.1768265 2.727841 -3.712484 -5.890146 -0.24822012

exp_avg f4 [2, 4]
00000000: fccb 0aad d448 08ae 26db 6aae b9ef 34ad
00000010: 06fc 5bad 15c5 902d c6a3 652d bd33 a2ad
-7.889685e-12 -3.0987504e-11 -5.3400083e-11 -1.02850445e-11 -1.2504669e-11 1.6458427e-11 1.3053508e-11 -1.8440244e-11

exp_avg_sq f4 [2, 4]
00000000: 8f22 811b bcd8 9b1d 4587 3e1e 3b86 4e1b
00000010: 9f57 281c 72a1 a21c e830 471c 3ad6 4c1c
2.1363593e-22 4.1252256e-21 1.0086489e-20 1.7083293e-22 5.5699785e-22 1.0761993e-21 6.5906787e-22 6.777482e-22

exp_avg f4 [4, 2]
00000000: 0473 e1ae a217 9c2e 5da9 23af a25b ed2e
00000010: fcd6 882d bfa7 282e 48cc 692d b215 102e
-1.0252246e-10 7.098257e-11 -1.4884934e-10 1.07937895e-10 1.5556882e-11 3.8347766e-11 1.3289876e-11 3.276108e-11

exp_avg_sq f4 [4, 2]
00000000: 3411 5921 53ae 2620 2932 0922 d838 d220
00000010: b3dd cc1b 7ee8 1c1d a21d 8c1b f0b3 d61c
7.354523e-19 1.4118426e-19 1.8593517e-18 3.5613e-19 3.389224e-22 2.0766624e-21 2.3180207e-22 1.4207845e-21
