lightning_logs/version_16/checkpoints/epoch=99-step=400.ckpt (torch, 5961 bytes, 6 tensors)

input_to_hidden.weight f4 [2, 4]
0	0x405dd48e	3.4660983
1	0x40c7cb92	6.2436
2	0xc086d9de	-4.214095
3	0x405d8ada	3.4615998
4	0x40dd1021	6.908219
5	0xbff1a732	-1.8879149
6	0x40175d4f	2.36507
7	0x40dd0060	6.906296

hidden_to_output.weight f4 [4, 2]
0	0xc0098199	-2.148535
1	0xc096f0e7	-4.716907
2	0xbfa16e33	-1.2611755
3	0xbfc2a15e	-1.5205495
4	0x4038f6d4	2.8900652
5	0xc0e6e26b	-7.215139
6	0xc0fec00b	-7.9609427
7	0xbfe3fe4b	-1.7811979

exp_avg f4 [2, 4]
0	0xadafe278	-1.9995769e-11
1	0xa537c279	-1.593861e-16
2	0xaac360c2	-3.4706098e-13
3	0xadf9d3da	-2.8402104e-11
4	0xae358784	-4.1274997e-11
5	0xa5791433	-2.1604151e-16
6	0xaaf28bc6	-4.3084823e-13
7	0xae76a6f6	-5.6082215e-11

exp_avg_sq f4 [2, 4]
0	0x231401ac	8.02345e-18
1	0x2487c21c	5.887575e-17
2	0x26066968	4.663344e-16
3	0x232a906f	9.2463035e-18
4	0x226a6174	3.1764505e-18
5	0x2595d69b	2.5992802e-16
6	0x23bd1896	2.0501834e-17
7	0x22725b15	3.2845334e-18

exp_avg f4 [4, 2]
0	0x2dc03c8c	2.1854761e-11
1	0x2e3ff09c	4.3642076e-11
2	0xab9d5196	-1.1178166e-12
3	0x2b309a72	6.2742097e-13
4	0x2de7aff1	2.6339793e-11
5	0x2e670030	5.2523486e-11
6	0x2dd96300	2.4714009e-11
7	0x2e58be97	4.928199e-11

exp_avg_sq f4 [4, 2]
0	0x20d1262f	3.5431245e-19
1	0x200a8a79	1.1734871e-19
2	0x25d2391a	3.6467887e-16
3	0x249a8743	6.7015996e-17
4	0x25bae320	3.2419763e-16
5	0x235662e0	1.1621901e-17
6	0x25023147	1.1292398e-16
7	0x24ff0e8c	1.10613265e-16
