lightning_logs/version_9/checkpoints/epoch=99-step=400.ckpt (torch, 5961 bytes, 6 tensors)

input_to_hidden.weight f4 [2, 4]
000000 1e 31 a8 3f 9f 69 7e 40 60 8d 67 c0 f0 a3 b5 3f
       1.3139989 3.9751966 -3.6180038 1.4190655
000010 bb 75 81 40 8a ff c0 bf 8e 8c 98 3f 07 ea 7d 40
       4.0456214 -1.5077984 1.1917894 3.967409

hidden_to_output.weight f4 [4, 2]
000000 c7 4e ee bf f4 fd 56 c0 d8 9e 2c 3e 6a 2d 30 40
       -1.8617791 -3.35925 0.16857469 2.7527719
000010 8a 29 1c 40 54 f6 17 c0 17 02 a3 c0 37 df 23 3e
       2.4400353 -2.3744097 -5.094005 0.16003118

exp_avg f4 [2, 4]
000000 9d 4a b3 b2 86 a0 61 b4 2c 94 8b 34 d1 33 41 b1
       -2.0872273e-08 -2.1013156e-07 2.5998577e-07 -2.811465e-09
000010 c4 1d 17 b2 51 b3 08 33 ba ca 1a b3 7e 6e d5 b2
       -8.796125e-09 3.1828055e-08 -3.6040298e-08 -2.484671e-08

exp_avg_sq f4 [2, 4]
000000 63 30 f1 2c a0 48 c8 30 74 73 c1 30 e6 f3 eb 2a
       6.855004e-12 1.4572556e-09 1.4075412e-09 4.1913624e-13
000010 e0 b6 5c 2f 68 b1 8d 30 51 fa 72 2e 31 1f fd 2d
       2.0073854e-10 1.0309522e-09 5.5246755e-11 2.8776622e-11

exp_avg f4 [4, 2]
000000 35 5d 23 33 e5 43 b1 b2 c3 62 8c b3 e6 ea a2 32
       3.8036166e-08 -2.0636387e-08 -6.537223e-08 1.8966102e-08
000010 13 2b 59 b4 ab 06 1b 34 e9 d2 81 34 1c ca e6 b2
       -2.022537e-07 1.4437926e-07 2.418158e-07 -2.6867433e-08

exp_avg_sq f4 [4, 2]
000000 43 00 0c 30 da 84 6b 2e b1 9c 0e 31 c0 e4 0a 30
       5.0932075e-10 5.355081e-11 2.0752788e-09 5.052918e-10
000010 53 bf 74 31 b5 1b 0d 30 b0 15 72 30 b8 17 13 2f
       3.5615428e-09 5.1334875e-10 8.8069907e-10 1.3377999e-10
